AgroAi.tflite (tflite, 725780 bytes, 16 tensors)

conv2d/Conv2D_bias f4 [32]
000000 79 a2 ec bd 45 ba 7d bd d7 80 8f bd f7 c6 07 be
       -0.11554427 -0.06194522 -0.07006996 -0.13259493
000010 34 a4 6b 3d 6d fc fd 3c 8b c8 10 bd 70 5d 6a bd
       0.057529643 0.031004155 -0.035347503 -0.057218015
000020 94 a6 4f 3d 4e af 0d 3d a4 f3 d3 3d 85 1a aa bc
       0.05069597 0.03459101 0.10349205 -0.020764599
000030 8d 6c 04 3c cc 62 97 be 7d d6 fe 3c 52 00 3e 3e
       0.008082521 -0.29567564 0.031108135 0.1855481
000040 91 b4 e8 3d c3 ed a7 be 40 61 75 3d e9 3a 8b bd
       0.11362565 -0.32798585 0.059907198 -0.067983456
000050 1c 5f 1a be 80 fe 22 be ec 36 e1 bd 96 d7 8f bd
       -0.15075344 -0.15917397 -0.10996804 -0.07023542
000060 7c a9 a9 bd 36 47 55 bc 31 bd 66 bd f5 5a 1b 3d
       -0.0828428 -0.013017466 -0.05633277 0.03792854
000070 f6 d8 cc bb b1 99 18 3d 40 63 61 3d 5c 6c 8a 3c
       -0.0062514497 0.037255947 0.055026293 0.016897373

conv2d/kernel f4 [32, 3, 3, 3]
000000 e7 60 91 3d d7 79 2d be b7 d5 84 3d ad e0 bb 3d
       0.07098561 -0.1694101 0.06486075 0.09173713
000010 1a 93 1b bd 69 42 02 be 7b 91 cf bd 35 15 d1 bc
       -0.037982084 -0.12720646 -0.1013517 -0.025522808
000020 3a 04 f6 bc 2e 27 b2 bd 00 c1 c2 3b ab 85 9b 3d
       -0.030031312 -0.08698879 0.0059434175 0.075938545
000030 89 f5 1d 3d 1d 5d 4f 3d 1f ae 32 be 2f d1 8f bc
       0.03856424 0.05062591 -0.17449234 -0.017555801
000040 1f 02 27 bc 04 19 a5 bc 7a 67 06 be cb 32 91 bc
       -0.010193377 -0.02015353 -0.1312541 -0.017724415
000050 03 fd 2d be 45 31 bc 3d 0e 21 f1 bd 68 6f c1 bd
       -0.16991048 0.09189085 -0.11773883 -0.09445077
000060 a0 0f a4 3d 55 0d 82 bd f3 b8 31 bd 16 46 0c 3d
       0.08010793 -0.06350199 -0.043389272 0.034246527
000070 50 af 2a bd 30 16 88 3d 49 ac 5c be 86 d9 f7 bd
       -0.041671097 0.06644857 -0.21550097 -0.12102036
000080 bb c1 a4 bd f8 54 fd bd 35 89 5b 3d e6 7b df 3d
       -0.08044764 -0.12369722 0.053597648 0.109123036
000090 c6 80 62 3b a3 65 42 be af 0f 42 3d bf d4 91 bd
       0.0034561618 -0.18984084 0.04737824 -0.07120656
0000a0 c2 dc 39 be ef 86 b7 bc d7 68 12 3d a8 ea c1 3d
       -0.18150619 -0.022403209 0.035744514 0.09468585
0000b0 fc 1f 5a 3d ac f9 22 be 41 4d ab bc 63 58 ca 3d
       0.05325316 -0.15915555 -0.020910861 0.0988014
0000c0 58 22 29 be cc c6 57 be ff 42 3f 3d fd d4 16 be
       -0.16517007 -0.21071929 0.04669475 -0.14729686
0000d0 97 b8 b1 3d 34 0b b8 3d a9 81 a5 3d 68 d2 f1 bd
       0.08677786 0.08986512 0.08081371 -0.1180771
0000e0 a7 c6 41 3d fd cb 01 bc 88 3f d3 3c 26 9b ce bd
       0.04730859 -0.00792217 0.02578713 -0.10088186
0000f0 1c 39 1b be 9e 2b 28 be ee 95 8d bd 99 09 82 bc
       -0.15158504 -0.16422889 -0.069133624 -0.015873717
000100 70 cd de bc 88 cb 6a bd 6e 60 80 bd 6a 69 8f bd
       -0.02719757 -0.05732301 -0.062683925 -0.07002528
000110 3d 73 1b be 7d 2b 22 be 46 ca 4a bd 8d 39 f6 bd
       -0.15180679 -0.15836902 -0.04950931 -0.12022696
000120 2a 7a 58 bd ed b1 04 3d 3c 51 03 bd 1e 4d 98 bb
       -0.05285088 0.032396246 -0.032059893 -0.004647865
000130 c2 f0 80 3d de cc 2e bd 84 1f 69 3d 21 39 14 be
       0.06295921 -0.042675845 0.05691482 -0.14474918
000140 c7 97 56 bd 39 db 6b 3d 3c 50 c4 3d a5 97 26 3e
       -0.05239084 0.057582114 0.09585616 0.16268785
000150 02 f1 5c bb a2 46 10 bd bd 5f 5a 3d 5f 85 23 be
       -0.0033712988 -0.03522361 0.05331396 -0.15968846
000160 c3 f3 69 bd 30 68 a5 bd 52 14 19 be 93 75 d1 3c
       -0.057117235 -0.08076513 -0.14949158 0.02556876
000170 99 9f c5 3d 67 87 ef 3c a5 11 09 3d 94 57 c1 3d
       0.096495815 0.02923937 0.033464093 0.09440532
000180 14 68 ce bd 35 93 39 3d 41 be ec 3d 82 3f 5c be
       -0.10078445 0.045306403 0.115597256 -0.21508601
000190 77 a2 99 3d bc f1 20 3e 37 f1 5b be 62 8f 9c 3d
       0.07501691 0.15717214 -0.21478735 0.076445356
0001a0 a1 8d fa 3c dd 2b 58 be 91 a2 c3 bd 4a db 4b 3e
       0.030585112 -0.21110483 -0.095524915 0.19907871
0001b0 f5 1a eb 3d f1 80 18 3d aa 34 0f 3e 21 5f de bc
       0.11479751 0.037232343 0.13984933 -0.02714497
0001c0 14 49 dc bc ce b6 09 be 32 dc bf 3c c0 cc 17 bd
       -0.026890315 -0.1344864 0.023420427 -0.0370605
0001d0 6c 0c 06 bd c2 9b 3e be 71 3b fa bd 4c b4 e8 bd
       -0.03272669 -0.18614104 -0.12218369 -0.11362514
0001e0 55 0e 0c be 86 ec fa bc c6 d0 7a be 34 d7 7b 3d
       -0.13677342 -0.030630361 -0.24493703 0.06148453
0001f0 ab f8 21 be b9 7f e5 3a 2e db d2 ba 7b 09 f7 bd
       -0.15817516 0.0017509378 -0.0016087049 -0.12062355
000200 b4 ea 61 be 1f c9 1e bd 4d 4b 03 3e 13 5f df 3c
       -0.22062188 -0.038766023 0.12821694 0.027267015
000210 60 b8 0f be 42 1f 6d 3d 25 3b dd bd 43 87 0f be
       -0.14035177 0.057891138 -0.108022965 -0.14016442
000220 c0 e0 df bd 1b cf c9 bd 80 ec ad 3d 75 d5 67 3d
       -0.109315395 -0.09853955 0.084923744 0.056600053
000230 cd 3b 64 bc 1c 90 17 3e 6d 33 0d 3d 51 e1 13 3e
       -0.013930273 0.14801067 0.03447287 0.1444142
000240 f9 6e ed bd 04 89 80 bd ae 4c ed 3c 3b ed 2d be
       -0.11593432 -0.06276134 0.028967228 -0.16985027
000250 66 12 3a be 60 17 59 be d2 55 14 3e 84 a8 df bd
       -0.18171081 -0.21200323 0.14485863 -0.10920814
000260 cd a0 f4 3c 7e 74 7f be 3c 54 28 be 88 ec 32 bd
       0.029861832 -0.24946782 -0.16438383 -0.043682605
000270 6a 97 15 be b5 7a 3b bd e7 09 03 be 5a 90 3a bd
       -0.14608541 -0.04577132 -0.12796746 -0.04554782
000280 47 e3 0f be 1f 09 18 3d 15 9c d5 bd 00 82 1c 3e
       -0.14051543 0.037118074 -0.10430161 0.15283966
000290 b4 de 0f 3e 36 64 8c 3c 1a 2a cc bc 63 04 f4 bc
       0.14049798 0.017137628 -0.02492242 -0.029787248
0002a0 4f 4a 96 bd 02 60 d5 bd d8 eb 51 be a4 78 5a be
       -0.07338392 -0.10418703 -0.20500124 -0.21335083
0002b0 a6 f5 25 be 04 c5 98 be 32 ee bc bd 60 12 48 be
       -0.16206989 -0.2983781 -0.0922512 -0.1953826
0002c0 c2 81 31 be 97 cf 13 3d d1 6f 89 bd 18 b4 77 3b
       -0.17334655 0.036086645 -0.067107804 0.0037796553
0002d0 57 b3 69 bb 4d 97 8e bd 15 1d d8 bd 02 e7 00 be
       -0.0035659873 -0.06962452 -0.10552422 -0.12588122
0002e0 7b 9f 35 3d d0 c6 42 3d 6f 66 52 be 91 52 26 be
       0.044341546 0.047552884 -0.20546888 -0.16242434
0002f0 11 9e 43 be 0f 79 17 3e 76 fb 98 bd 31 21 fd 3d
       -0.19103266 0.14792274 -0.07469837 0.123598464
000300 36 09 08 3e 70 e8 80 bc 89 7a 8e bc c1 ab 4f 3d
       0.13284764 -0.015735835 -0.017392414 0.050700907
000310 10 c9 92 bd 05 9c 8c 3c 09 39 57 3d 37 1a c8 bd
       -0.07167256 0.01716424 0.052544627 -0.09770625
000320 ba ef ea 3d cd 7a 6f bd 7a 21 4c be 9b f5 30 3e
       0.114715055 -0.05846672 -0.19934645 0.17281191
000330 21 08 9c 3d c1 16 a8 bd 80 2a c3 bd a7 08 cb 3b
       0.07618738 -0.08207465 -0.095295906 0.0061961
000340 61 a9 fd bd 88 62 1a 3e fc 55 2b 3d db 1f 7d 3b
       -0.12385822 0.15076649 0.041830048 0.0038623724
000350 b9 f9 85 3d 53 f7 a3 bc 13 fd 9a bd d9 9d be bd
       0.065417714 -0.020015394 -0.07567801 -0.09307451
000360 b9 0d b6 3c 2c a2 65 be a1 eb ba bc 9c 2d dc bd
       0.02222334 -0.22425145 -0.022817435 -0.10750887
000370 26 c8 8d bd 3f 87 bb 3d 07 74 5a be de 95 69 bd
       -0.06922941 0.091566555 -0.21333323 -0.05702769
000380 c0 e9 cf bd bd 9d 15 be c3 2f 8c be c0 68 18 bd
       -0.10152006 -0.14610954 -0.2738019 -0.037209272
000390 3e 86 dd bd 69 8a 8b be 5e 13 0e be 06 e0 9a bd
       -0.1081662 -0.27254036 -0.13874575 -0.0756226
0003a0 7e c3 3e be 07 64 e6 bd fa db 8e 3c 6e b6 90 bc
       -0.18629262 -0.112495475 0.017438877 -0.017665114
0003b0 af 73 72 3e d1 62 03 bd 3c 46 05 be 2b 09 1a be
       0.23676942 -0.03207666 -0.13015074 -0.1504256
0003c0 f2 2d 2d be 4c 8b 3e bd f5 c1 77 bd c9 25 0e 3d
       -0.16912058 -0.046519563 -0.060487706 0.034704003
0003d0 51 d3 66 bc eb 98 f0 bc 99 e8 88 bc 55 aa 09 be
       -0.014088468 -0.029369792 -0.016712474 -0.13443883
0003e0 5a b3 c9 3c 95 67 03 be 4c 3d 13 3d a8 49 02 bd
       0.024621654 -0.12832482 0.03594713 -0.031808525
0003f0 00 36 2f be a6 ed 53 bd 58 a5 98 bc 5f 0b 37 3e
       -0.17110443 -0.05174031 -0.01863353 0.17875431

conv2d_1/Conv2D_bias f4 [64]
000000 23 9b 51 bd 06 af 62 bd 92 b8 15 be 2c 97 35 bd
       -0.05117334 -0.055342697 -0.14621189 -0.04433362
000010 4a 74 87 bd 53 83 86 bd 90 08 4e be a3 f4 03 3e
       -0.06613977 -0.06568017 -0.20120454 0.1288629
000020 c7 9e c4 bc 9d 78 4c bd 68 f9 6a bd ef 93 cf bd
       -0.024001492 -0.049919713 -0.05736676 -0.10135638
000030 14 30 5a bd 42 a8 00 bd 5b df 09 bd f5 de 96 be
       -0.053268507 -0.031410463 -0.033660274 -0.29466978
000040 1c 4c af bd 5c b8 e7 bd 0b 93 53 bd 4b 72 d3 bc
       -0.085594386 -0.11314461 -0.051653903 -0.025811335
000050 d1 f9 33 bd 1e 7e 82 bd 31 e3 06 be 58 fc c9 bd
       -0.043939415 -0.06371711 -0.13172604 -0.09862584
000060 b9 c5 f8 bd 5e ae 36 3e 53 d3 8b 3d 36 ea cf bc
       -0.121470876 0.17839953 0.06827416 -0.025380235
000070 a6 9e e9 bd 06 b7 bf bd d8 64 cb bd 35 9d ed bc
       -0.11407213 -0.09361081 -0.09931344 -0.029005626
000080 af 89 81 be 13 88 ae bd 2b 75 e7 bd f4 2e 3b 3e
       -0.25300357 -0.08522048 -0.11301645 0.1827963
000090 22 60 d7 bd e1 87 56 bd 37 19 e2 bd 0b 44 1a be
       -0.10516383 -0.052375678 -0.110399656 -0.15065019
0000a0 06 c2 e8 bc 7d 01 a3 bd 7a 6f 36 be 4f 3e d8 3b
       -0.02841283 -0.07959268 -0.17815962 0.0065992246
0000b0 06 23 af bd bd b4 ba 3d 15 66 05 3e 7c 5b 27 bd
       -0.08551602 0.09116504 0.13027222 -0.04085873
0000c0 cf dd f7 bc 3a b5 14 be 85 16 80 bd 31 68 00 bd
       -0.030257134 -0.14522257 -0.06254295 -0.031349365
0000d0 7a dd e8 bd 38 ce fd 3c 8d 73 6d be 2e 1e b6 bc
       -0.11370368 0.030982122 -0.2318861 -0.022231188
0000e0 f8 2d d1 bd 01 5b 91 bd 29 04 b5 3b 8f ac c4 3d
       -0.10213846 -0.07097436 0.0055241776 0.096032254
0000f0 cd 93 3c 3e 10 89 04 3e 43 f4 cf 3c 9b 5f 67 bd
       0.18415757 0.1294291 0.025385028 -0.05648766

conv2d_1/kernel f4 [64, 3, 3, 32]
000000 63 f1 9b bd 20 27 93 3c 19 12 b3 bd 6f 23 5c bd
       -0.076144 0.017962992 -0.08743686 -0.05374473
000010 9a a0 92 bd 85 42 34 bc e8 d5 46 3d 69 dd 21 bc
       -0.071595386 -0.011002188 0.04854384 -0.009879448
000020 14 93 06 be e8 d9 41 bd 6d 0d 20 bc b8 f3 b6 bd
       -0.13142043 -0.047326952 -0.009768826 -0.089332044
000030 3b b6 a6 bd ce 55 99 bd 0c f9 1d bc 92 14 ac bc
       -0.081402265 -0.07487069 -0.009641897 -0.021005902
000040 c1 ea 82 3d 01 5e cd bd 75 b0 54 bd 47 63 45 bd
       0.06392432 -0.100276954 -0.051926095 -0.04819038
000050 31 8b da 3c b2 f7 80 3d 27 e8 65 3c 08 3a 22 bc
       0.0266777 0.06297244 0.0140324 -0.009901531
000060 d3 0d 97 bc 5c de 31 3d 0a 23 f7 bc 56 43 f4 3c
       -0.01843921 0.04342495 -0.030168075 0.029817265
000070 42 17 91 bd 42 a4 61 3b 24 be 7e 3d 9f 16 fc bb
       -0.07084514 0.003443018 0.06219305 -0.0076931263
000080 e7 64 a3 bd 1b 80 bb bd 0a 6b 19 bd a6 70 c3 bd
       -0.0797823 -0.091552936 -0.037455596 -0.0954297
000090 01 b9 1a bc 05 d5 89 bd b1 21 0f 3c 78 5e 42 bd
       -0.009443522 -0.067300834 0.00873606 -0.047453374
0000a0 4d 5b d4 bd 2c 40 2c be 7e 49 a2 bb e3 2f f5 bd
       -0.10368977 -0.16821355 -0.0049526086 -0.11972024
0000b0 0a b0 c8 3b 0c e1 b1 bd c6 f0 8f bc 11 e9 98 bd
       0.006124501 -0.086855024 -0.017570864 -0.07466329
0000c0 a8 39 a2 bd 8f 7c 9e bd be 1a 6d 3c f5 87 11 3d
       -0.07921153 -0.077386014 0.014471708 0.03553005
0000d0 fb db 55 bd 04 3c 4b bc b9 67 f9 bc 44 04 8b bd
       -0.052211743 -0.012404446 -0.030444967 -0.06787923
0000e0 13 ea 4e bb 6b ea 71 bc 66 bc a8 bd e7 d8 d8 bd
       -0.0031572625 -0.014765362 -0.08239059 -0.10588246
0000f0 05 8e 66 3b 49 7f 94 bb 61 4f 0d 3d 5f f7 b1 bb
       0.0035179865 -0.004531775 0.03449953 -0.0054311003
000100 8e 67 16 3d f9 0a a2 3c a6 0a a7 bd f1 72 ce 3c
       0.03671985 0.019780623 -0.08156328 0.025201293
000110 0c c7 fe bd c6 91 b7 bd d6 e9 0c bd ad a6 39 bd
       -0.12440309 -0.08963351 -0.03440269 -0.04532497
000120 41 e0 cd 3d 5d 71 fc 3d 76 65 42 bd a7 d8 b4 bd
       0.10052539 0.1232631 -0.047460042 -0.08830386
000130 75 69 d6 ba 3e fd 4c 3d 4e 10 20 be 9f 0e 7d bd
       -0.0016358333 0.050046198 -0.1563122 -0.061781522
000140 68 51 9e 3d 53 13 5c bd db 24 2d bc b3 ec 36 bd
       0.07730371 -0.053729367 -0.010567869 -0.044659328
000150 ef c0 a6 bd 85 8f 53 bd e4 97 22 bd d6 51 b8 bc
       -0.08142268 -0.051650543 -0.039695635 -0.02249996
000160 9d 8a 4c bd fe 97 ee 3c af 80 a9 bd 4a 0f b8 bc
       -0.04993688 0.02912521 -0.082764976 -0.022468228
000170 e7 46 01 be 81 28 83 bd 8a 13 90 bd 0f 68 1c 3d
       -0.12624703 -0.0640421 -0.07034977 0.038185176
000180 d2 22 80 bd 2d 17 b3 bd 7f 20 7c 3d e4 0a 81 bc
       -0.062566414 -0.08744655 0.06155443 -0.015752263
000190 12 12 eb bc a9 92 be bc 3a 58 5f bd fd b5 e5 bd
       -0.02869514 -0.023263292 -0.0545275 -0.11216352
0001a0 0b e6 fc bd 89 dd 50 be d1 db 1b be 38 c6 a5 bd
       -0.12348565 -0.20397009 -0.15220572 -0.08094448
0001b0 78 68 02 be 6c 50 42 bd 6e de 8f bd bc c0 bf 3b
       -0.12735164 -0.047439978 -0.07024847 0.005851833
0001c0 ec 5d 8d 3d 3e 7e 0c be 2c f1 c0 bd 8d 7a 1d 3c
       0.0690268 -0.13720033 -0.09421 0.009611738
0001d0 80 88 a6 bd 2f 36 0c bb 07 af b7 bd 36 74 60 bd
       -0.08131504 -0.00213946 -0.08968931 -0.054798327
0001e0 de 23 82 3d d1 37 09 3d e2 97 5f bd 54 7e a9 bd
       0.063544974 0.033500496 -0.054588206 -0.08276048
0001f0 0d bf c3 bd 53 51 77 bd b2 1f 62 3d b0 16 74 3d
       -0.095579244 -0.06038029 0.05520601 0.05959195
000200 11 63 1c bc e5 11 c5 bd ea ff a8 bc e7 cd 6e bd
       -0.009545104 -0.09622554 -0.020629842 -0.058301833
000210 91 93 9c bd 73 84 8e bd 11 e8 e5 bc c8 f1 07 be
       -0.076453336 -0.069588564 -0.02806476 -0.13275826
000220 41 b2 a0 bd 38 71 70 bd 5a 54 e1 3c 38 41 b4 3d
       -0.07846499 -0.058701724 0.027506042 0.08801502
000230 32 49 13 bd f1 e5 e1 3c af f8 12 bc 09 5c 9d bd
       -0.035958476 0.027575465 -0.008970424 -0.0768357
000240 ed b8 ac 3d 86 89 b4 bc d9 af 43 3d 25 41 41 bd
       0.08433709 -0.022038233 0.047775123 -0.047181267
000250 63 81 d8 bd 91 02 8c 3d 37 23 ec bb 00 0b 50 bd
       -0.105715536 0.06836427 -0.0072063464 -0.05079174
000260 be e2 79 3d 86 32 61 3d 4a 7a 50 3c 85 21 1e 3d
       0.061007254 0.054979824 0.0127244685 0.038606185
000270 69 d5 81 bb 7d c9 a2 3c 4d 2f fd 3c 3a 81 e7 bd
       -0.003962208 0.019871468 0.030906344 -0.11303945
000280 4b f7 3b bc 39 99 bd bc f0 82 a7 bd cd 49 5d bd
       -0.011472533 -0.023144351 -0.08179271 -0.05402546
000290 31 85 48 bd 70 b1 5a bc de 7c 8e 3d f8 f1 a0 bd
       -0.048955146 -0.013347968 0.0695741 -0.07858652
0002a0 37 ac e3 bc 56 57 f5 3d 5f d3 0f bc 4d ff 2f be
       -0.02779208 0.11979549 -0.008778422 -0.17187233
0002b0 38 65 4b bd cf 6e 50 bd 91 f0 8a bd 4b 6c cb bc
       -0.049657077 -0.050886925 -0.06784166 -0.024831912
0002c0 62 15 84 bd 26 31 01 be ca 48 78 bd 59 5b 90 bd
       -0.06449391 -0.12616405 -0.060616292 -0.07048673
0002d0 3f 3e 95 3c c7 82 51 bd 31 2c 1c 3c 55 90 5b 3c
       0.018218158 -0.05115011 0.00953202 0.013401111
0002e0 ff 33 3f 3b 70 b2 2b 3d 69 09 9c bd 31 33 f5 bd
       0.002917528 0.041918218 -0.07618982 -0.119726546
0002f0 d7 1c 8f 3d 81 15 fb 3c 2f 7f e4 3b e5 41 7e bb
       0.06987923 0.030649902 0.0069731693 -0.00387966
000300 96 18 03 bb 96 79 07 be 32 55 81 bd 00 68 a5 bd
       -0.0020003668 -0.13229975 -0.06315078 -0.08076477
000310 06 81 d4 3c 2a 30 d1 bd e7 21 da bc 6a 24 e3 bb
       0.02594043 -0.10214265 -0.026627494 -0.006931831
000320 b0 17 3a 3b 4a 58 2f bd cb c0 a7 3d 77 d6 44 bd
       0.0028395467 -0.04280881 0.08191069 -0.048056092
000330 22 3b 7f 3d 93 8a ee 3c 9c ae 16 3d af cc ca bd
       0.062312253 0.029118812 0.036787614 -0.099023215
000340 f7 aa 2b 3d f0 57 a3 bd 09 6c fd 3b 47 ec 61 3d
       0.04191109 -0.07975757 0.007733826 0.055156972
000350 ad 2a 8e 3c fb 35 02 bd 87 80 99 bd 72 bb 94 bd
       0.017354334 -0.03178976 -0.07495218 -0.07262315
000360 61 09 ac bd 7c 11 8c bd c7 af b6 bd b0 12 8c 3d
       -0.084002264 -0.068392724 -0.089202456 0.06839502
000370 a1 75 83 bb 08 7f a2 bd 13 cb 8e bc f4 5a 01 3c
       -0.004011825 -0.079343855 -0.017430818 0.00789522
000380 a3 48 94 bc 84 53 0e 3d 18 58 37 bc e1 f5 c4 bd
       -0.018101042 0.034747615 -0.011190437 -0.0961721
000390 94 4b 2f 3c ef 67 8f bd 26 27 9f 3d 9b 25 3a bd
       0.010699172 -0.07002246 0.07771139 -0.04544602
0003a0 f2 74 02 bd 31 3f f4 bd b3 36 24 be b5 56 fd bd
       -0.03184981 -0.11926115 -0.16036491 -0.12370054
0003b0 9c 9f 16 bd e2 c2 06 3d 63 d9 19 be e9 d3 60 bd
       -0.03677331 0.0329007 -0.15024333 -0.054889593
0003c0 5c 1f d6 bc 84 86 9a 3a 48 42 e5 3c 48 9a 47 b9
       -0.026138 0.0011789356 0.027985707 -0.00019035593
0003d0 25 ab 93 bd e2 de da bc 3d 95 8d bd d6 0e 9d bb
       -0.072103776 -0.026717607 -0.069132306 -0.0047930283
0003e0 4a c3 ff bc bc 21 a4 3c d2 41 16 3d 9c 9b 28 bc
       -0.03122105 0.020035617 0.036683865 -0.010291006
0003f0 85 8d 7d 3d f9 75 09 3d 3f 13 d4 bd ac 8d 54 3b
       0.06190254 0.033559773 -0.103552334 0.0032433076

conv2d_2/Conv2D_bias f4 [64]
000000 82 68 91 be e0 d4 81 3c b1 bd 85 be 0d 44 ad bd
       -0.28400046 0.015848577 -0.26121286 -0.08460245
000010 d1 3a ac 3e e0 ca 44 be c8 36 90 bd 1b 7c 49 3e
       0.33638623 -0.19218016 -0.07041699 0.19676249
000020 8b c9 16 be 1f 8f a1 3d b9 d1 54 3d 0c 99 29 be
       -0.1472532 0.07888626 0.05195782 -0.16562289
000030 5c 15 01 3d 57 21 d5 be 76 d1 87 bd 92 f1 d2 bd
       0.03151451 -0.41627 -0.066317484 -0.10299982
000040 80 77 cf bd a8 0a cb bd 05 75 b8 bb 32 5a f4 bd
       -0.10130215 -0.09914142 -0.005629184 -0.11931266
000050 c6 e1 9b bd 93 20 2b 3c 17 45 ac bd 68 76 11 be
       -0.07611422 0.010444778 -0.08411615 -0.14205325
000060 da 95 a0 be 33 0a 72 be 44 80 46 3d 0c 1d 1d bd
       -0.31364328 -0.23636703 0.048462167 -0.03835778
000070 af da 19 be be a9 29 be f9 db c5 3b 8b 0d 78 bd
       -0.15024827 -0.16568658 0.0060381857 -0.06055979
000080 5d 7b 3b be 75 fa 8f bd 1d 94 84 bd e3 ea a0 be
       -0.18308778 -0.07030193 -0.06473563 -0.31429204
000090 84 08 46 3d e2 50 26 be 0e 6c 3c bd 26 15 32 be
       0.048347965 -0.16241792 -0.046001486 -0.1739088
0000a0 93 1f de bd 2e 42 fc bc cb c3 3c 3c 05 09 bc 3c
       -0.10845866 -0.030793276 0.01152129 0.02295352
0000b0 b2 5d 51 3e 1b 04 a8 bd bb d0 56 be 65 de 80 3c
       0.20445898 -0.08203908 -0.20978062 0.015731046
0000c0 b8 4c de bd 26 79 49 3e ef f6 58 bd 86 ad b9 bd
       -0.10854477 0.1967512 -0.05296987 -0.090663
0000d0 47 5c 98 3d 4e 24 8e 3d da a2 13 bd 33 5f c4 3c
       0.074394755 0.06940518 -0.03604398 0.023971176
0000e0 b6 64 27 3e 03 6e 22 be 78 6a 74 be 59 3f 4a be
       0.16347012 -0.15862279 -0.2386874 -0.19750728
0000f0 5f b7 f4 bd 55 a5 99 bd 2f 9d bb 3e b2 dc 84 bc
       -0.11949038 -0.07502238 0.3664336 -0.016218517

conv2d_2/kernel f4 [64, 3, 3, 64]
000000 4e 5e 28 bd 41 e5 24 3c 42 1b 07 be 80 32 5b 3d
       -0.04110556 0.010064424 -0.13193992 0.053514957
000010 b5 1f 42 bd 34 de a3 bd 01 8e 26 bc 06 d4 d3 bd
       -0.04739352 -0.08001366 -0.010165692 -0.10343175
000020 e9 ea a2 bd 5a 42 0d bd d5 e6 06 bd 35 b4 24 bb
       -0.07954962 -0.034487106 -0.032934982 -0.0025131826
000030 8d 59 e7 3c e0 fa 9c 3c 12 17 5f 3c 42 c3 ac bb
       0.028240943 0.019162595 0.01361634 -0.0052723
000040 2e 09 8d bd 43 e4 71 3d b9 75 a8 bd 27 e6 53 bd
       -0.068865165 0.059055578 -0.08225579 -0.051733162
000050 23 87 8f 3d cf ec 91 bd 20 d0 be 3d e8 a8 60 3c
       0.07008197 -0.07125246 0.093170404 0.013712145
000060 93 d9 9e bd bd 52 24 3b 84 95 bb bd ed f8 d7 3d
       -0.07756343 0.002507373 -0.09159377 0.10545526
000070 b4 b1 1d bd 05 e9 84 bb 05 6f 85 3d 24 25 82 bd
       -0.03849955 -0.0040560984 0.06515316 -0.0635474
000080 43 57 4c bc 25 ef b6 3c 61 ef 52 3d 6d e4 95 bd
       -0.012471977 0.02233083 0.05149782 -0.073189594
000090 03 2f 61 3c fc 9f 47 3c a2 c9 01 3d ed 5b da bb
       0.013744119 0.012184139 0.031686433 -0.0066637904
0000a0 18 a4 b0 3c ff 34 37 bd 81 22 c8 bd ac 26 de bd
       0.021562621 -0.044728275 -0.09772206 -0.1084722
0000b0 94 52 d2 3a e5 8d 6f be fa e1 01 bd 32 c7 a9 ba
       0.0016046339 -0.23393972 -0.03170965 -0.0012953042
0000c0 41 d8 68 bd dd a3 7c 3c 4e d0 d8 bd c6 1c 2e bd
       -0.05684686 0.015419927 -0.10586606 -0.04250791
0000d0 cf 06 a1 3c 35 42 b3 3d 6e 65 bb bd 8d a4 5f be
       0.019656567 0.08752862 -0.091502056 -0.21840115
0000e0 76 c6 75 3d 1f ba 43 bc 49 86 d8 bd ba be c3 bd
       0.06000372 -0.01194623 -0.10572488 -0.095578626
0000f0 e6 3c 19 bd f0 69 c1 bd 17 d2 53 bd f4 fa 4f 3d
       -0.037411593 -0.09444034 -0.05171403 0.050776437
000100 21 23 2f bc eb 0b 2a 3c 14 c2 36 bd cc 52 cf 3d
       -0.010689528 0.010378818 -0.04461868 0.10123214
000110 e8 df 6c bd 2e d8 a4 bd 07 bf a7 bb e0 f9 eb bc
       -0.05783072 -0.080490455 -0.005119208 -0.028805673
000120 ba ba 06 be cb 25 9e 3c 52 d5 25 bd cc 98 a9 3c
       -0.13157168 0.01930513 -0.04048664 0.020702742
000130 13 a3 9f bd 3c f0 f2 bc f6 96 f2 3c 42 d4 a8 3b
       -0.07794776 -0.029655568 0.029613 0.005152256
000140 47 ce a1 3b f5 d0 5b bd 83 e6 f5 3c de 48 12 3e
       0.0049379203 -0.053666074 0.030017143 0.14285609
000150 86 a2 7d ba 81 7d 94 3d 0d 28 1e 3c 8c fe 13 bd
       -0.0009675402 0.072505005 0.009653104 -0.036131427
000160 38 b9 39 3d 67 ca fd bd 7f d2 04 be 9e 26 1f 3e
       0.045342654 -0.12392121 -0.12970923 0.15542075
000170 26 6d fc bb 33 3d 67 bd 56 94 42 bd 31 27 36 be
       -0.007703441 -0.05645485 -0.047504745 -0.17788388
000180 8b d3 a7 bd 5b 28 8d bc 12 4f 68 3d 36 97 bf bd
       -0.081946455 -0.017231157 0.056716032 -0.09355013
000190 85 5c b4 bd 31 66 66 bd 80 04 5f 3b 39 1a c0 bb
       -0.08806709 -0.0562498 0.0034029782 -0.005862501
0001a0 7c 12 8d 3d 01 69 83 3d 95 22 7c bc 12 6e 6e bd
       0.06888291 0.06416512 -0.015389104 -0.05821044
0001b0 d0 25 05 3e cf 36 6d be b9 2f 1a be 09 dc 59 3c
       0.13002706 -0.23165439 -0.15057267 0.013297089
0001c0 b4 82 98 3d 35 3d 12 3d e7 ba 01 be f9 8e 35 bc
       0.07446805 0.035702903 -0.12668954 -0.011081451
0001d0 5b 3b a6 3c 42 71 37 be 45 b8 fa bc 58 57 eb bd
       0.020291975 -0.17914298 -0.030605445 -0.11491269
0001e0 2c 50 4a bd 86 13 36 3d f9 ff 38 bd d0 5a 68 3d
       -0.049392864 0.044452213 -0.04516599 0.05672723
0001f0 c0 dc e0 bc 8d c7 bd bd 8b 55 19 be dc ec e0 ba
       -0.027449012 -0.09266577 -0.14974038 -0.0017160433
000200 9a ed a2 3c 9c e5 db bc 08 d3 a2 bd d5 4f 7f 3c
       0.019888688 -0.026842885 -0.07950407 0.015582998
000210 6c 2a 06 3c 82 0f 69 bd 99 f6 d3 3c be cb 5c bd
       0.008188825 -0.056899555 0.025874423 -0.05390524
000220 d9 d5 2a bd a4 f0 82 3b 41 8a f3 3c 4b f8 fd 3c
       -0.041707847 0.0039959718 0.02972901 0.031002184
000230 ac a9 f0 3c 14 8e 64 bd 80 f6 ac 3c 34 5b 39 be
       0.02937778 -0.05579956 0.021113634 -0.18101197
000240 5b 1c 0e 3d 8b 8e 32 bd 3a 9b c7 bc c4 a7 30 3e
       0.03469501 -0.04359297 -0.02436601 0.17251498
000250 81 fd 05 3d f0 1b 21 3d a0 74 4c bd b5 ef d8 3c
       0.032712463 0.039333284 -0.04991591 0.026481489
000260 21 ba 7d 3d d3 ae cd bc be 27 65 be df ac 33 3e
       0.061945084 -0.025107777 -0.22378442 0.17546414
000270 ee 32 4b bd 2a 09 23 bc 31 f4 53 3d 49 08 99 bd
       -0.049609117 -0.009950915 0.05174655 -0.074722834
000280 56 03 fa 3c 77 ed b5 bc 2b b1 37 bd af 4f 14 3c
       0.030519169 -0.022207959 -0.044846695 0.009052201
000290 93 33 05 bc 82 bc 93 bd 72 b4 bd bc 3e 52 92 3c
       -0.008129972 -0.072136894 -0.023157332 0.017861482
0002a0 ae c3 52 bd 1b db c9 bc 23 98 87 3d 91 3c 26 3e
       -0.051456146 -0.02464061 0.06620815 0.16234042
0002b0 03 ee 12 3d 91 df ad be 83 f8 f6 3c 62 d4 7c 3d
       0.035871517 -0.3395963 0.030147796 0.06172598
0002c0 39 be 3f bd 95 52 87 3d 86 5c a2 bd b4 ad 12 bd
       -0.04681227 0.06607548 -0.07927804 -0.035810187
0002d0 d6 95 83 bd 5c fa 11 3e 0e 30 82 3a ac 27 04 be
       -0.06425063 0.14255661 0.0009932534 -0.12905759
0002e0 53 4e 77 3d 10 27 85 3c 8d 2e e0 bb 02 9c 5f bc
       0.06037743 0.016253978 -0.006841487 -0.013648035
0002f0 80 f4 08 3e e3 2f d3 bd 93 26 f0 3d 54 81 2a bd
       0.1337452 -0.10311868 0.117261074 -0.041627243
000300 7d 58 ba 3c 02 74 94 3d 6f 85 b1 bd fd 6e d5 bc
       0.022747273 0.07248689 -0.086680286 -0.0260539
000310 55 ad 0d bd cf e4 08 bd df 48 36 be c3 6b 8f 3b
       -0.03458913 -0.033421334 -0.17801236 0.00437686
000320 d8 c6 2d be 0c 71 a0 bd 27 1b 8a bd 77 d3 a3 bd
       -0.16970384 -0.07834062 -0.0674346 -0.07999318
000330 db a5 27 bc 25 2a f0 bc 31 f8 3a 3c 8e 72 17 be
       -0.010232414 -0.029316971 0.0114117125 -0.14789793
000340 f0 80 da bd a0 f1 d2 3c 99 53 02 be cd fc a1 3b
       -0.10669124 0.025749981 -0.12727202 0.0049434663
000350 69 6d e2 3c f7 5f a4 3c a2 ff 25 bd 92 2e 9c bd
       0.027640061 0.02006529 -0.040526994 -0.0762607
000360 55 da a8 bd 9a 9d 16 3d 11 75 24 3d 1e 4e 3e be
       -0.082447685 0.036771394 0.040150706 -0.18584487
000370 57 64 08 3d ae a5 cd bd d0 af 6c bd 12 d9 61 3d
       0.033298817 -0.100413665 -0.057784855 0.055138655
000380 ad d0 af bb cf b0 86 bd 7b 51 c7 bd 42 7e 8d bb
       -0.0053654523 -0.06576692 -0.09732338 -0.0043180296
000390 15 27 83 bc bb ed 79 3d e9 39 92 bd be 02 e7 bb
       -0.016009847 0.061017733 -0.07139952 -0.0070498874
0003a0 5e f3 7e bd 8e ef 7b 3d 4a c3 84 bd eb 9e 7a 3c
       -0.06224381 0.061507754 -0.06482561 0.015296678
0003b0 2e ae 13 3d 59 98 a9 3d 3b 3c 66 be 73 11 ca bd
       0.036054783 0.08281011 -0.22483914 -0.098666094
0003c0 ef 5d 54 bd 85 cc b8 bd e4 a8 2a be 92 0c b0 3c
       -0.051847395 -0.09023384 -0.16665989 0.021490369
0003d0 a6 0a 6b bd 75 9a fc 3d 97 78 4b bc f9 bf 04 be
       -0.057383202 0.12334148 -0.012418888 -0.12963857
0003e0 86 a9 c9 ba d7 5c 0b 3d 94 18 3f bd 15 5c 90 bc
       -0.0015385605 0.034024086 -0.0466543 -0.017622033
0003f0 89 6d 52 bd 55 aa d3 bc 22 af 29 3d 46 2d 4b 3d
       -0.051373992 -0.025838057 0.041426785 0.049603723

conv2d_3/Conv2D_bias f4 [64]
000000 95 94 96 3e 26 48 12 be 4c 7d 23 be 20 b1 03 ba
       0.29410234 -0.14285335 -0.15965766 -0.0005023647
000010 96 8b a3 3e c4 31 b9 be 3e 6d 57 3d 96 09 32 be
       0.31942433 -0.3617078 0.052594416 -0.17386469
000020 76 b9 69 3e d1 fd a3 3b 51 e7 93 3e a9 49 00 3e
       0.22824654 0.0050046225 0.28887418 0.12528099
000030 a3 c5 87 bd 23 ba 7d bd 24 c7 57 bd 6f 04 f5 bd
       -0.06629493 -0.061945092 -0.05268015 -0.11963736
000040 47 d8 13 be 51 8f 96 bd 44 e2 c0 bc 7c 33 e1 3d
       -0.14437972 -0.07351554 -0.023545392 0.10996148
000050 6a 10 17 3f de 0a 00 be b5 99 66 be 38 43 82 3c
       0.5900942 -0.12504146 -0.22519572 0.015901193
000060 06 47 46 3e a9 93 1f bd 35 e1 03 be 13 3c 58 3c
       0.19363031 -0.03895918 -0.12878878 0.013197917
000070 0e bf 78 3c 31 59 5c 3e 40 3f 15 bd c7 82 f3 bd
       0.01518227 0.21518399 -0.036437273 -0.11890178
000080 9c ba 43 3d 83 26 42 bc c5 1b e0 3e 7c 84 18 be
       0.047785386 -0.011850002 0.43771186 -0.14894289
000090 1e 49 c2 bd 59 27 ab be dd a6 1b 3e 33 84 c9 be
       -0.09486602 -0.33428457 0.15200372 -0.39358672
0000a0 8c 70 29 bd 34 cd 0e be ac 56 eb be 8d f3 63 3d
       -0.0413671 -0.13945466 -0.45964563 0.05565219
0000b0 ba be e5 bc 63 7b 5a be 81 a1 be bd 01 1c 46 bd
       -0.028045047 -0.21336131 -0.09308148 -0.04836655
0000c0 a5 b8 30 3e e3 85 40 be a9 b4 f1 bd 19 0d 14 be
       0.17257936 -0.18801074 -0.11802036 -0.14458121
0000d0 a3 4c b0 bc f1 02 88 3e ed fa 83 3d ae f7 05 be
       -0.021520918 0.26564744 0.06444345 -0.13082764
0000e0 a5 45 58 bc 55 e0 3a be 79 28 df bd c7 4b 0f 3e
       -0.013200198 -0.18249638 -0.108963914 0.1399375
0000f0 a8 be 8c 3d 99 a9 83 bd e9 dd e5 3c b4 bd b6 3d
       0.06872302 -0.064288326 0.028059917 0.08922902

conv2d_3/kernel f4 [64, 3, 3, 64]
000000 3f 99 c5 3c b7 b8 c3 bd c0 3c 03 3d 0c 84 00 3b
       0.024120925 -0.09556716 0.032040358 0.0019609956
000010 d9 c5 68 bd 8e 20 36 be 3f 53 c1 bd 5d 41 34 3c
       -0.056829307 -0.17785856 -0.09439706 0.011001912
000020 72 04 95 bc be 30 9d bd 85 e8 be 3c 0f ba a9 bd
       -0.018190596 -0.076753125 0.023304233 -0.08287441
000030 c7 25 49 be e7 7c 46 be 6c e0 b2 3d 09 60 88 3d
       -0.19643317 -0.19383584 0.08734211 0.06658942
000040 62 4a fa 3c 81 09 0d bd a6 95 59 3d 6d dc 4a bd
       0.030553047 -0.03443289 0.05312123 -0.04952662
000050 78 6a 40 bb 7f af 08 bd d9 47 3a bc 0b e6 95 bc
       -0.0029360335 -0.03337049 -0.011369669 -0.01829817
000060 d8 0a 44 bd 4b 47 74 be b4 ca a8 bc 65 5b 1a 3c
       -0.047861904 -0.23855321 -0.020604469 0.009421204
000070 2a 71 da 3c 9f 09 9c 3b c8 f4 46 be f8 25 a2 3d
       0.026665289 0.004761889 -0.19429314 0.07917398
000080 88 e8 2b 3c 54 b2 e2 bc 82 6f 14 be f2 45 1a be
       0.0104924515 -0.027672924 -0.14495662 -0.15065745
000090 1c a9 ca 3c eb 01 fd bc ef fc d0 3d 80 f4 4c bd
       0.02473884 -0.030884704 0.10204493 -0.05003786
0000a0 49 24 b1 bc 02 32 7f 3b 86 78 5d be d9 64 d4 bd
       -0.021623747 0.003893972 -0.21628007 -0.10370798
0000b0 d5 18 5f bd 2e a2 de 3c 0f d6 87 bd 81 17 e0 3c
       -0.05446704 0.027176943 -0.06632625 0.027354958
0000c0 f2 81 c4 bd 66 6e bf bd 83 cb 1c 3c 51 8c 93 bd
       -0.095950976 -0.09347229 0.009570005 -0.072044976
0000d0 c1 df e6 bd db 18 22 bd 95 c7 7a bb a8 79 1f be
       -0.112731464 -0.039574485 -0.0038265933 -0.15573752
0000e0 7a bd a0 3d 73 45 0a bc 6e be bc bb ce 27 13 3d
       0.0784864 -0.00843941 -0.0057600057 0.035926633
0000f0 5c 37 40 bc 88 37 19 bd e6 d0 37 be f7 55 f7 3c
       -0.011731949 -0.037406474 -0.17950782 0.030192358
000100 ac f0 99 3c 52 5f fd 3d 43 0f 37 bd 7a eb 4c bc
       0.01879152 0.123716965 -0.04469229 -0.012507314
000110 c2 95 07 3c 0c 98 6a be 46 5c 9a bd 41 8f 9e bd
       0.008275451 -0.22909564 -0.07537131 -0.07742167
000120 e1 ef 53 be e9 54 8f 3c 2b 42 aa bd 86 b0 65 be
       -0.20696975 0.017496543 -0.08313402 -0.2243062
000130 31 80 28 be 73 c7 24 be 86 91 48 bd 4e a5 ec bc
       -0.16455151 -0.16091709 -0.048966907 -0.028887417
000140 f3 a2 c8 bd 4f 06 dc 3d e4 05 23 be dd e6 28 bc
       -0.09796705 0.10743391 -0.15920216 -0.010308948
000150 28 a3 68 bd 76 e4 d2 bd a3 da c8 3d 1e 8c f8 bd
       -0.056796223 -0.10297482 0.09807327 -0.121361
000160 47 62 35 bb 94 f4 24 be bd 95 fa bd f3 b8 f1 bc
       -0.0027676986 -0.16108924 -0.122355916 -0.029507136
000170 8d 1b b2 3c ae dd 3a 3d f1 26 ff bd fa 42 0a 3e
       0.021741653 0.045621566 -0.12458599 0.13502112
000180 bd d9 1b bd 65 55 56 3c ca f3 89 bb f2 72 97 bd
       -0.03804945 0.013081883 -0.00420997 -0.07394971
000190 8d cf bc 3d ce 5d b7 3d fa 66 6c 3d de 99 1d bd
       0.09219275 0.08953439 0.057715394 -0.038476817
0001a0 3e d8 9b bd a9 f8 fe bd a9 61 16 be 7b 64 94 3c
       -0.07609604 -0.12449772 -0.14685692 0.01811432
0001b0 87 28 f5 bd db ef 6d 3e 94 ff d4 bd cf cd 1d b8
       -0.119706206 0.23236029 -0.1040031 -3.762339e-05
0001c0 b7 47 27 be 1e e8 9a bd 41 a6 28 bd 4a 5b 26 be
       -0.16335951 -0.07563804 -0.041174177 -0.16245762
0001d0 12 55 bb bc 8b 49 3d 3d 4c 44 c2 bc 02 77 0d be
       -0.022867713 0.046212714 -0.023714207 -0.13814929
0001e0 f5 c8 58 3d 1f b5 62 bd fe 4b cc 3c 2a b8 c7 3c
       0.052926023 -0.05534851 0.02493858 0.024379808
0001f0 b2 83 91 3d a2 9d de bc aa 40 14 be 6e e6 b2 bd
       0.07105197 -0.027174775 -0.14477792 -0.08735357
000200 75 35 00 be f5 f3 b4 3d 7b 0c dc 3b aa e6 81 3d
       -0.12520392 0.088355936 0.006715355 0.06342824
000210 ca 5b f5 bd d7 ab db bd 14 cc 93 bc 93 72 a6 bd
       -0.11980398 -0.10726135 -0.018041648 -0.08127322
000220 54 1d 71 bd 17 e3 2c 3e 84 e8 d4 bd f8 cc b2 be
       -0.05886586 0.16883503 -0.10395911 -0.34922004
000230 29 8b 89 3d 73 7e 49 be cd 23 77 bd 73 ef 88 3d
       0.06715996 -0.19677143 -0.060336877 0.06686296
000240 b6 f4 cc bc 8a 5c b8 3d df 69 42 be 5d f2 22 bc
       -0.025019031 0.090020254 -0.18985699 -0.009945479
000250 4c ed 92 bd 0a db 07 be 1b 5a cd bb f0 7d 3f bd
       -0.07174167 -0.1326715 -0.006266845 -0.046750963
000260 6f d5 e3 bc 03 21 39 3e 1e 22 94 bc b4 88 f3 3d
       -0.027811734 0.18078999 -0.018082675 0.118913084
000270 69 e4 a2 3d 06 b4 13 3e c9 4e ca bc ef a8 15 3e
       0.07953722 0.14424142 -0.02469577 0.14615224
000280 95 41 c8 3d 7a 77 05 3e 8e 2c 2b 3d a4 1e a2 3c
       0.09778134 0.13033858 0.041790538 0.019790001
000290 64 2b 5e bd 4e e1 6c bc 53 4f 06 3d 9a 12 d1 3c
       -0.0542406 -0.014458014 0.032790493 0.025521565
0002a0 9e 0c d1 bb f8 82 0d 3c 2f 95 c0 3c 40 c8 7d 3d
       -0.006379678 0.008637182 0.023508636 0.06195855
0002b0 d9 03 5a 3d 2d e5 34 be 4e 9f 22 be 86 cc 0b bd
       0.053226326 -0.17665549 -0.15881082 -0.034130596
0002c0 69 c4 61 3b ab 7b e9 3c 60 fa c7 3c 15 4f 1d be
       0.0034449345 0.028501352 0.02441138 -0.15362199
0002d0 70 ce c4 3d 23 06 52 bd e8 5c d2 3c 2a 81 80 bc
       0.09609687 -0.051275384 0.025679067 -0.01568659
0002e0 ba 62 ca bd b9 01 bb 3d f6 29 b2 bd c8 27 63 3d
       -0.09882112 0.09131188 -0.0869941 0.05545786
0002f0 1e ae b4 3d 10 c7 1a bd d6 8f 15 be ce 74 6a be
       0.08822273 -0.037787497 -0.1460565 -0.2289612
000300 37 00 eb bc e4 c0 cf bd 43 ed 46 3e 01 15 4a bd
       -0.028686626 -0.10144213 0.19426446 -0.049336437
000310 56 3d 43 3d 3b c1 22 be 67 3e 2e bd 7b b9 41 bd
       0.047665916 -0.15894024 -0.04253998 -0.04729603
000320 34 12 2d bd 8b 0d e2 3c 78 e3 c9 bc f5 f5 7f 3c
       -0.042253688 0.027594348 -0.024644598 0.015622606
000330 01 03 9e be 4e 9f 32 be ea 5c e6 3d c2 33 a3 3d
       -0.30861667 -0.17443582 0.11248191 0.079688564
000340 e4 0a 15 3c 8d 1f 8a bd 97 8f 37 3d d8 e5 c7 3c
       0.009096835 -0.06744299 0.044814672 0.02440159
000350 a7 71 17 3b 96 65 19 bc 3b fc 98 bc b6 2b 4c 3c
       0.0023108514 -0.009362599 -0.01867496 0.012461593
000360 e1 54 fa bc 35 25 85 be 5a 59 7c bd 99 c5 1d bd
       -0.030558052 -0.2600495 -0.06160865 -0.038518522
000370 93 7a 32 bd 62 8a 7e bd 1c 74 9b be bb 32 95 bd
       -0.043573927 -0.06214369 -0.30362022 -0.07285067
000380 52 81 c4 bc 79 82 a8 bc fa 58 18 bd 73 78 12 be
       -0.023987446 -0.020570027 -0.03719423 -0.1430376
000390 58 ba a5 bc d5 a5 77 3c b8 1f 9c 37 33 d7 cc bb
       -0.020230457 0.015115221 1.861142e-05 -0.0062512397
0003a0 cb ce 80 bd 08 94 cb 3c c7 1f 7f bc 55 a7 dd bd
       -0.06289443 0.02485086 -0.015571541 -0.10822932
0003b0 94 4b 7b bd 59 3c 0f be 11 19 ef bd 4e 2b 10 bd
       -0.061351374 -0.13987865 -0.11674703 -0.03519755
0003c0 aa 18 53 bd 90 d3 87 3b 5e a4 e7 3c e4 3d af bd
       -0.051537193 0.0041450933 0.028276619 -0.085567266
0003d0 30 f5 53 bd b4 ab 73 3d 89 47 b0 bd 5c be 8c bd
       -0.0517475 0.05948992 -0.08607394 -0.06872246
0003e0 a5 2e 03 be 73 4d 36 be 2b 63 4b 3d 46 9d de 3c
       -0.12810762 -0.17802982 0.04965512 0.027174603
0003f0 d6 92 17 3d 22 10 ac bd a1 dd a3 3c 69 6d 70 3d
       0.037005268 -0.084015146 0.020003142 0.05869809

conv2d_4/Conv2D_bias f4 [64]
000000 87 9f 5a be 1f 03 27 3e 8f 60 6d 3e 27 bb ef 3c
       -0.21349917 0.16309784 0.23181365 0.029264046
000010 4d 8d a2 be 27 89 5c 3e 1e 35 be bd c0 54 ee 3c
       -0.3174843 0.21536694 -0.09287475 0.029093146
000020 e5 b1 3e 3d f1 42 7c bd 4a f5 46 bd d2 e0 1e be
       0.046556372 -0.061587278 -0.04857377 -0.1551545
000030 d8 1d 2b be f2 80 64 bd a0 31 67 3c 83 81 e8 bc
       -0.16710603 -0.055787034 0.014110953 -0.028382068
000040 c4 9e 3e 3e c5 aa 89 be 21 8c 3f be df ce 92 be
       0.18615252 -0.268881 -0.18705799 -0.28673455
000050 34 ea 79 3e 7e c2 5b be 90 02 94 3e 4b ce 7e be
       0.24405748 -0.21460912 0.28908205 -0.24883382
000060 39 5d 03 be e5 74 36 3e c2 31 a0 3d 38 32 3f 3f
       -0.1282853 0.17818029 0.078219905 0.74686
000070 d2 81 16 be 2e 09 b8 bd f7 89 15 bf 5b 35 e1 bd
       -0.1469796 -0.08986126 -0.5841364 -0.10996505
000080 6f 73 39 be 7f 3a ff 3e 77 30 67 bd 90 a5 f6 be
       -0.1811044 0.49849316 -0.056442704 -0.4817319
000090 02 d5 23 bd f3 84 c1 be f1 54 f2 be 63 ba 80 3e
       -0.039998062 -0.37796745 -0.4733043 0.25142202
0000a0 46 22 c2 3d 0d 6e cd bd 66 1e 66 3e 85 b9 d7 bc
       0.094791934 -0.10030756 0.22472534 -0.02633358
0000b0 d0 40 cf be 5f 4d 2e be c9 14 7a 3e b6 7f 8f bc
       -0.40479136 -0.17021702 0.24421991 -0.017516952
0000c0 20 a1 3f be 85 2c 75 3e a8 12 d1 3d d4 17 11 be
       -0.18713808 0.23942764 0.102086365 -0.14169246
0000d0 63 61 da 3d de 20 df bd 2d ce 4a be e5 fa 39 be
       0.10663106 -0.10894941 -0.19805212 -0.18162115
0000e0 17 65 9a 3d 73 3e 17 be 8e f0 29 3f 03 01 0c 3e
       0.075388126 -0.14769916 0.6638268 0.13672261
0000f0 f6 63 16 3d ed 18 91 3c 98 c5 01 be d0 44 80 3d
       0.036716424 0.01771208 -0.12673032 0.06263125

conv2d_4/kernel f4 [64, 3, 3, 64]
000000 f4 24 77 bd a6 77 2e bd 0c 48 55 3e 60 4f 2c 3c
       -0.060337976 -0.042594574 0.20828265 0.010516971
000010 87 a1 b7 3c a8 e9 68 3d c8 50 2d 3c 55 55 93 bd
       0.02241589 0.056863457 0.010578342 -0.0719401
000020 9c e5 3f be fd f2 a4 3c 26 1f 2b bd 9c 87 51 be
       -0.18739933 0.020135397 -0.041777752 -0.20461887
000030 e8 e3 e7 bb b2 9a 3c bd d8 52 bd 3d d3 e6 50 bd
       -0.007076729 -0.046045966 0.09244317 -0.05100138
000040 55 07 10 3d 60 2d bd 3d 25 7f 3d be 0d 85 8b 3d
       0.035163242 0.0923717 -0.18505533 0.06812487
000050 be f7 10 bd d0 8b af bc 20 72 7c 3d 3a 1f d4 3c
       -0.035392515 -0.021428972 0.061632276 0.025893796
000060 05 98 fc bd bb 7a 20 be e3 ff cd bc e5 46 00 be
       -0.12333683 -0.15671818 -0.02514643 -0.12527044
000070 eb 65 97 bc fc 12 56 bd 3c c2 f8 3c 13 2e 2b 3d
       -0.018481215 -0.0522642 0.030366056 0.041791987
000080 24 1f 6f be 91 a6 7e bd c2 d4 fa 3d fe 77 29 be
       -0.23351723 -0.06217057 0.122476116 -0.1654968
000090 19 96 8f 3d 02 25 40 bd 2e 12 8d 3d a0 e2 fe 3c
       0.07011051 -0.046910293 0.06888233 0.031113923
0000a0 5c e2 0d bd 9d 4a 6b bd cc c0 05 3c 35 83 23 be
       -0.0346397 -0.057444204 0.008163642 -0.1596802
0000b0 d0 77 80 bd fb e6 da 3c 65 99 15 bd e9 15 74 3c
       -0.062728524 0.026721468 -0.03652324 0.014897802
0000c0 87 db 2b 3c e7 d9 8d bd 0c 6c 36 3d 7b 3b 61 bd
       0.010489351 -0.06926327 0.044536635 -0.054988366
0000d0 55 ce 8f 3e 27 d9 7c be 25 8b 02 3e e2 d0 97 3d
       0.28087106 -0.24692212 0.12748392 0.07412888
0000e0 97 d4 9e be 30 64 73 3b 17 85 86 bd a5 5b ba 3d
       -0.31021568 0.0037138574 -0.065683536 0.09099511
0000f0 9f aa 4d 3d 6f 32 74 3c 91 41 b5 bd c0 fa b0 bd
       0.050211545 0.014904602 -0.088503964 -0.08641577
000100 44 40 bb bd 90 fd 77 bc 27 3e b1 3d 55 7f 03 be
       -0.09143117 -0.015136138 0.08654433 -0.12841542
000110 63 2b 3f 3e 65 47 dc 3d cb 53 d4 bd fb b9 30 bd
       0.18668894 0.10755805 -0.10367545 -0.043146115
000120 b2 39 f1 bd c2 6c f3 bd e8 97 7d b7 46 4b 6e bd
       -0.11778583 -0.11885978 -1.5115344e-05 -0.058177255
000130 6b 72 fd bd 39 b9 34 bc 61 62 57 3d 30 21 ef bd
       -0.12375339 -0.011030489 0.052584056 -0.11676252
000140 8b 92 e7 bd 2f 03 c9 bd 3d 70 17 be af 18 60 bd
       -0.11307248 -0.0981506 -0.1478891 -0.05471104
000150 b7 ce f0 bd 1f 01 c4 3c 13 27 3a 3c 19 0f 97 bd
       -0.11758178 0.023926316 0.011361855 -0.073759265
000160 d4 cc a5 3a 74 9f e6 bd ef 9e 5f bd 5c 97 e7 bd
       0.0012649545 -0.11260882 -0.05459493 -0.113081664
000170 37 bf c5 3d 57 de 6f be f6 5f 07 3e a3 6a 08 3d
       0.09655612 -0.2342466 0.132202 0.03330482
000180 8d 60 2d be 13 ec ac bc 65 10 f9 bb 4c cb 46 be
       -0.16931362 -0.021108663 -0.0076008313 -0.19413489
000190 2a c7 94 bd 39 95 a5 39 95 07 d4 3d a3 fc e0 bd
       -0.0726455 0.00031582432 0.10353009 -0.10985687
0001a0 fa 99 18 3d 3c 2a 36 be bc 1c 27 be db b8 b4 bb
       0.03725622 -0.17789549 -0.16319555 -0.0055152006
0001b0 84 c4 2e 3d 87 68 ca bd e8 c9 69 3d 5f 64 08 be
       0.04266788 -0.09883218 0.05707732 -0.13319539
0001c0 5b dd 12 be d6 48 10 3d b6 a7 55 bd fa aa 25 bd
       -0.14342253 0.03522571 -0.052161895 -0.04044626
0001d0 99 ca d0 3d b1 7b 59 be da e1 bb bc d3 63 ec bd
       0.101948924 -0.21238591 -0.022934843 -0.115424775
0001e0 53 64 13 bd 76 51 b9 bd 5d 2c 03 bd 00 4e ce 3d
       -0.03598435 -0.090487406 -0.03202473 0.10073471
0001f0 7c c6 24 bd c9 2c 1d bd ee 65 3a be de c9 95 3d
       -0.040228352 -0.03837279 -0.18202946 0.07313894
000200 4f 8e 1e 3d ff a8 90 bd f9 8c 94 bd fe bf fa 3a
       0.038709935 -0.070634834 -0.07253451 0.0019130704
000210 07 d4 08 bc ca 52 a1 3d ec 21 a1 bd eb 7c 89 bc
       -0.0083513325 0.07877119 -0.07867798 -0.016783198
000220 6e ec 0d be 58 ff 2b be d6 a6 58 be 4d b1 ab bd
       -0.13859722 -0.16796625 -0.21157393 -0.08383427
000230 d7 26 c7 bd 26 d2 e7 3c 77 a2 60 bd 03 9b 94 3d
       -0.09724205 0.028298449 -0.05484244 0.07256129
000240 4d 02 37 3d d6 dc 49 3b 42 57 ec bd 8c 64 52 3e
       0.04467993 0.0030801794 -0.115400806 0.20546168
000250 31 db 40 be b5 bd 47 bd 29 d1 17 bd 2a 71 69 3d
       -0.18833615 -0.048764903 -0.037064705 0.056992687
000260 04 35 8f 3d 79 1f e4 bd 7f 8c 2e bd 4a 2f b7 3d
       0.06992534 -0.111388154 -0.042614456 0.089445665
000270 7b 03 2d 3d 77 2e 84 bd 48 9b 13 3d d8 76 a6 3d
       0.042239647 -0.06454175 0.03603676 0.081281364
000280 09 b4 5b bd 8c f1 bb bc 74 fe f7 bd ec 17 66 3d
       -0.05363849 -0.022942327 -0.1210908 0.056175157
000290 7b 0d 70 be 8d 5b 1b bc 56 bd c4 bd 6e 08 4c 3d
       -0.23442642 -0.009482277 -0.096064255 0.049812727
0002a0 74 55 91 3d 89 50 85 bc 69 03 aa bd a3 b6 9c bd
       0.07096377 -0.016273754 -0.08301432 -0.07652023
0002b0 28 d8 1a 3d f5 51 83 bd ec 43 dd 3d 81 d8 f6 bd
       0.0378038 -0.064121164 0.10803971 -0.120530136
0002c0 b8 f6 63 3c be 52 ba ba 9f 62 e2 3d 90 3b e2 bd
       0.013913803 -0.0014215333 0.11053967 -0.11046517
0002d0 fb f9 cd 3d d7 db 2a be 79 0a 26 3e 34 22 52 3c
       0.100574456 -0.16685425 0.16214933 0.0128255375
0002e0 12 dc 8d 3c 94 59 1c bd 72 61 bd bc a7 06 21 be
       0.017316852 -0.038171366 -0.023117755 -0.15725194
0002f0 bc 4a 9f bd b4 9b b8 3d 71 f7 ba 3c 86 85 8e 3d
       -0.07777926 0.09014073 0.022823067 0.06959061
000300 60 d6 39 be 84 fe 1a 3e 3b 8f 05 be 97 57 d3 bd
       -0.18148184 0.15136153 -0.1304292 -0.10319441
000310 5e 4e 24 bd 9a d6 83 bc 1f a6 55 bc 50 55 cc bd
       -0.0401138 -0.016093541 -0.013040095 -0.099772096
000320 89 8b 6a be b7 7f 93 3d 51 d7 d2 bd 0e 24 a3 bd
       -0.22904791 0.07202094 -0.102949746 -0.07965861
000330 05 4f 8f bc f6 4e 85 bb b2 4d 48 3c d3 9c 32 3b
       -0.017493734 -0.004068251 0.012225555 0.002725412
000340 a5 0f 34 bd 33 24 70 bd d7 05 d3 bd 63 0b 18 be
       -0.043960232 -0.058628272 -0.10303848 -0.14848094
000350 df de eb bc 63 d2 38 bc 38 f9 46 bd ce 34 62 3d
       -0.028792797 -0.011280629 -0.048577517 0.05522614
000360 7c 7c 9a 3d c9 17 54 bd ef a0 e7 ba f6 c5 7a bc
       0.07543275 -0.051780496 -0.0017671863 -0.015305987
000370 19 90 91 3e 60 cb cd bd cf bb b1 bd e7 42 43 3d
       0.2843025 -0.10048556 -0.086784 0.047671225
000380 bc 72 bc bd c4 b8 ed bc 51 c3 07 3e 46 9b 2d be
       -0.09201571 -0.029018767 0.13258101 -0.16953763
000390 37 b4 78 3d 14 e7 ef 3b 47 46 0d 3d c8 e6 da 3d
       0.06071874 0.007321248 0.03449085 0.10688549
0003a0 9d 4e e3 bc 42 ff 72 3d 02 21 fe bc 68 e9 e3 bd
       -0.027747447 0.059325464 -0.031021599 -0.11128503
0003b0 e1 f1 2b bd 91 ed b4 bd 14 ec 26 3b 94 26 e8 bb
       -0.04197872 -0.08834375 0.0025470303 -0.007084677
0003c0 64 d7 06 3c 6b 33 54 3d 08 e4 af 3c 49 db 44 bd
       0.008230064 0.05180685 0.021471038 -0.04806069
0003d0 64 2f 37 3e 01 7e 86 be 2d 6f 36 bc 90 5e 71 3d
       0.17889172 -0.26268008 -0.011134905 0.058928072
0003e0 29 2d fd bd 13 6b 9f 3d ec 02 87 bd f7 66 8c 3e
       -0.12362129 0.07784095 -0.06592354 0.27422306
0003f0 e3 f3 28 bc 02 8a a2 3a 17 37 1d be 43 6e ed 3d
       -0.010312053 0.0012400749 -0.15353046 0.115932964

conv2d_5/Conv2D_bias f4 [64]
000000 99 20 33 3d e1 54 51 3e b6 49 f3 3e e1 c3 a0 3e
       0.04373226 0.20442535 0.47517174 0.31399444
000010 62 21 8a bd 96 41 85 bd b5 5c fc 3e 12 ed b5 be
       -0.067446485 -0.0650665 0.4928948 -0.35532433
000020 f1 33 ee 3d 22 7e 46 be 91 c3 b5 bd 68 be aa 3e
       0.11631001 -0.19384053 -0.08875192 0.33348393
000030 01 40 6b be 5b 9a 19 3f 85 9d 3c 3d 7b 8f b0 bd
       -0.22973634 0.6000115 0.04604866 -0.08621117
000040 48 65 83 3e 12 76 6c be 06 04 d1 3e b2 21 a8 bc
       0.2566321 -0.23091915 0.40823382 -0.02052388
000050 2c c6 13 3f 9d 14 19 bd 16 e8 ce bc a0 29 34 3e
       0.5772426 -0.037373174 -0.025257152 0.17594004
000060 6e 4f c4 bd c4 27 8c bd 36 cf 31 be 73 8b 02 bc
       -0.095854625 -0.06843522 -0.17364201 -0.007967818
000070 a6 9e 35 be 50 dd cb bd ca 01 85 bd dc 55 48 3e
       -0.17736301 -0.099543214 -0.06494482 0.19564003
000080 3b 7d bf be 86 51 72 bd a2 6b f7 bc bc a3 39 3f
       -0.3740023 -0.059159778 -0.03020269 0.72515464
000090 0f 3f 8f 3e ce 6b b9 bc d0 65 da bd 78 11 e0 bc
       0.27977797 -0.022634413 -0.106639504 -0.02735208
0000a0 07 52 ec bd 80 cd cb bc 7b e6 b3 bb 84 72 e2 3d
       -0.11539083 -0.024878263 -0.005490122 0.11056998
0000b0 99 7d 6c 3e c8 a5 75 3e fb 5b 38 3e bf 71 0a 3e
       0.23094787 0.23989022 0.18003838 0.13519953
0000c0 ca b9 2c 3e 62 e0 36 bc bb 0f 5b 3f 36 5c 49 be
       0.16867748 -0.0111618955 0.8557088 -0.19664082
0000d0 43 ab 43 be 77 be 21 3d e3 71 f6 bd 59 fd 38 be
       -0.191083 0.039488282 -0.12033441 -0.18065394
0000e0 84 7e 46 3e bb 28 52 3e a5 4e d2 bd c2 52 b6 3d
       0.193842 0.2052335 -0.102689065 0.089025036
0000f0 b9 5d 04 bf 9c fd 2b 3e eb 5c b0 bd f7 55 7b be
       -0.5170551 0.16795963 -0.08611473 -0.24544512
